pruned_model.pth (torch, 830908 bytes, 8 tensors)

conv1.weight f4 [16, 1, 3, 3]
0.6052062 0.3858675 0.0 -0.012746235 0.09745518 -0.0 0.14881454 -0.35238692
-0.4971462 -0.0 0.0 0.42070544 0.48978773 0.3829287 -0.0 -0.2248429
-0.25289148 -0.0 0.006827011 -0.0 -0.26135316 0.46987543 0.124488845 0.0
0.40066552 0.11981004 0.0 0.4537682 0.11956918 -0.59739846 0.0 -0.11840793
-0.40846398 0.3901494 0.4503094 -0.0 0.1896043 -0.0 0.0 -0.45111012
0.025506133 0.0 -0.09680677 -0.0 0.0 -0.0 -0.0 0.0
-0.0 0.10470466 0.0 -0.0 0.43061098 0.0 0.0 0.4880526
0.0 -0.15556923 -0.35995498 0.23996624 -0.54161423 -0.0 0.43079978 0.5914237
-0.0 0.0 -0.2599222 -0.0 -0.0 -0.0 -0.0 -0.0
0.0 -0.0 -0.4943406 -0.0 -0.34649006 -0.0 0.0 0.43394187
0.0 0.0 0.49253052 0.51554674 -0.0 -0.27587917 0.0 -0.0
-0.0 -0.22161648 -0.0 -0.4298726 -0.48005325 0.109894276 0.0 -0.0
0.33617574 0.0 0.0 -0.0 -0.21057916 0.0 -0.30640993 -0.034477763
0.0 0.52678704 0.5024121 0.33181855 -0.2536799 0.008755342 -0.24889372 -0.3210558
0.02486733 -0.0 -0.23444352 -0.0 -0.39813355 0.4183081 0.31228212 0.24712127
0.32550886 0.33194295 0.53638774 -0.35621965 -0.35202393 0.35365605 -0.22801718 0.51421773
0.22360802 -0.38822135 0.40712038 0.44636154 -0.0 -0.07107292 0.0 0.0
-0.0 -0.20624049 -0.002819179 -0.3859324 0.0 -0.29698274 -0.0 0.1862704
00000000: cbee 1a3f 6d90 c53e 0000 0000 96d5 50bc
00000010: 9596 c73d 0000 0080 d762 183e 0f6c b4be
00000020: f289 febe 0000 0080 0000 0000 b466 d73e
00000030: 75c5 fa3e 3b0f c43e 0000 0080 383d 66be
00000040: fe7a 81be 0000 0080 1eb5 df3b 0000 0080
00000050: 15d0 85be 8393 f03e 02f4 fe3d 0000 0000
00000060: 0824 cd3e f75e f53d 0000 0000 4e54 e83e
00000070: b0e0 f43d 1bef 18bf 0000 0000 db7f f2bd
00000080: 3122 d1be aac1 c73e f48e e63e 0000 0080
00000090: a127 423e 0000 0080 0000 0000 e8f7 e6be
000000a0: 3df2 d03c 0000 0000 a142 c6bd 0000 0080
000000b0: 0000 0000 0000 0080 0000 0080 0000 0000
000000c0: 0000 0080 666f d63d 0000 0000 0000 0080
000000d0: 0b79 dc3e 0000 0000 0000 0000 08e2 f93e
000000e0: 0000 0000 8a4d 1fbe 054c b8be b6b9 753e
000000f0: 3ba7 0abf 0000 0080 ca91 dc3e 8b67 173f
00000100: 0000 0080 0000 0000 8614 85be 0000 0080
00000110: 0000 0080 0000 0080 0000 0080 0000 0080
00000120: 0000 0000 0000 0080 361a fdbe 0000 0080
00000130: 2567 b1be 0000 0080 0000 0000 a12d de3e
00000140: 0000 0000 0000 0000 f62c fc3e dffa 033f
00000150: 0000 0080 0940 8dbe 0000 0000 0000 0080
00000160: 0000 0080 6eef 62be 0000 0080 4318 dcbe
00000170: 8ac9 f5be 4010 e13d 0000 0000 0000 0080
00000180: 3a1f ac3e 0000 0000 0000 0000 0000 0080
00000190: 10a2 57be 0000 0000 c3e1 9cbe 8e38 0dbd
000001a0: 0000 0000 84db 063f 149e 003f 1fe4 a93e
000001b0: 55e2 81be 9172 0f3c ffdd 7ebe 6d61 a4be
000001c0: 92b6 cb3c 0000 0080 f611 70be 0000 0080
000001d0: 29d8 cbbe 7b2c d63e 71e3 9f3e 5c0d 7d3e
000001e0: 19a9 a63e 6df4 a93e b550 093f 6c62 b6be
000001f0: 7b3c b4be 6812 b53e 567d 69be c6a3 033f
00000200: 80f9 643e f3c4 c6be 1572 d03e 8089 e43e
00000210: 0000 0080 ae8e 91bd 0000 0000 0000 0000
00000220: 0000 0080 b530 53be fac1 38bb ee98 c5be
00000230: 0000 0000 1f0e 98be 0000 0080 abbd 3e3e

conv1.bias f4 [16]
0.22443427 0.030742351 0.24891703 0.35784575 0.08817132 -0.08372334 0.052368667 0.21782552
0.23617178 0.098548934 0.19179474 0.3378767 0.059044205 -0.026682638 0.45165884 0.07397747
00000000: 19d2 653e 62d7 fb3c 1be4 7e3e 8f37 b73e
00000010: 2a93 b43d 2477 abbd 8780 563d a70d 5f3e
00000020: 04d7 713e 06d4 c93d d765 443e 2dfe ac3e
00000030: 56d8 713d 8c95 dabc d43f e73e 8081 973d

conv2.weight f4 [32, 16, 3, 3]
0.018581642 0.014070417 0.052687973 -0.08198708 -0.1445924 -0.10739912 -0.111905776 0.003021412
0.08416948 0.039119042 0.027916817 0.07832523 -0.130875 -0.060702078 0.06821931 0.05952013
0.1402329 0.147408 -0.07084023 0.057392195 0.09669757 -0.04454431 -0.0019239002 0.04047268
0.19329703 0.115019925 -0.012375918 -0.037598003 -0.010163088 0.097173795 0.0075406334 0.023951475
0.028812474 -0.0054048877 -0.08510333 0.051198546 0.17080136 0.065677084 0.01041439 0.03486597
-0.03710005 -0.01265616 -0.08523789 -0.19179311 -0.094939664 0.2014564 0.049402196 -0.08711307
0.0455888 0.044896025 -0.08261198 -0.032071456 -0.040033307 -0.21645434 0.14692567 0.106754065
-0.062271293 0.061311997 0.11486543 0.04480781 0.004583767 -0.12128371 0.09510393 -0.111753345
-0.18232508 -0.028009715 -0.04159272 -0.10418869 -0.13872871 -0.1232106 -0.056526147 0.03460175
-0.10233723 -0.15322728 0.005179593 -0.031794682 -0.1292582 0.14535855 0.041997563 -0.12264092
-0.13282573 0.022570057 0.07289254 -0.01944238 -0.060253482 -0.071149655 -0.11442865 -0.22058862
-0.07079524 0.15958622 0.0035521886 -0.12263947 -0.09657642 0.07500674 -0.09011312 -0.045456555
0.010843183 -0.12818876 0.022593638 -0.037369616 0.03827241 -0.016301766 0.039422452 0.02110889
0.14174138 0.19403695 0.016025923 -0.15577951 -0.08324595 -0.15973291 -0.087631725 -0.097519025
-0.08233821 -0.19462961 -0.13548511 -0.043835755 -0.10791378 -0.029749049 0.09894895 0.041604515
-0.02242754 0.06956781 0.021763448 0.07964239 0.09518574 0.12510546 0.0725139 0.15427057
0.024761293 -0.028431408 0.03890219 0.012049173 -0.055004492 -0.026222672 0.006533981 -0.102930725
-0.1267746 -0.06704465 -0.12148413 -0.05912908 -0.0793204 -0.17049283 -0.10862718 -0.18750477
-0.19424833 -0.02238529 0.19230254 -0.24947576 0.118745536 0.15955879 -0.16757864 0.055869598
0.10899919 -0.20009974 0.03788175 0.13290808 -0.17093621 0.099841364 -0.078469895 0.01764042
-0.018177824 -0.06612461 -0.028857982 -0.041476183 -0.040651157 -0.09382559 -0.085598096 -0.014781189
-0.016122287 -0.07674315 0.04118532 -0.33453292 0.050417084 0.08280491 -0.17212738 0.08853439
0.10153219 -0.05572239 0.21506031 0.1777636 0.037057642 0.17471787 -0.028100768 0.045723673
0.04552336 -0.2804112 0.1832416 0.14889137 -0.22396035 0.14603922 0.23532914 0.16810565
0.08572259 0.23874101 -0.1913729 0.17306332 0.0879752 -0.35403043 0.160502 0.13858482
-0.20118608 0.16609332 0.026348552 -0.35183063 0.059976652 0.007114635 -0.1957898 -0.019690702
-0.14860868 0.021412741 -0.13920015 -0.2253984 0.105501905 -0.18570402 -0.06889943 0.088289075
-0.055703543 -0.120614275 -0.09180946 -0.08542093 -0.18559271 0.13219117 -0.21510246 0.039346334
0.15822615 -0.18796901 -0.1767242 -0.09054609 -0.16672654 -0.18040495 -0.1882529 -0.059971478
-0.075963 -0.17684181 -0.08438185 -0.11047908 -0.014174298 -0.22506052 -0.14944397 -0.0146220075
-0.15942498 0.030865245 0.13062419 0.11644868 0.15644664 0.053706743 0.048844505 0.0008661523
-0.1750883 0.17213754 0.0022954433 -0.26032287 0.061587267 -0.16893521 -0.03556699 -0.007217774
00000000: 8738 983c 9b87 663c 58cf 573d d8e8 a7bd
00000010: 0810 14be 12f4 dbbd db2e e5bd e202 463b
00000020: 0c61 ac3d 4a3b 203d cfb1 e43c fa68 a03d
00000030: 1904 06be bea2 78bd 91b6 8b3d 61cb 733d
00000040: 3799 0f3e 1ff2 163e af14 91bd 1414 6b3d
00000050: 6009 c63d 1874 36bd 612b fcba aec6 253d
00000060: a8ef 453e 918f eb3d 5dc4 4abc 5d00 1abd
00000070: 1583 26bc 0e03 c73d 6b17 f73b e235 c43c
00000080: 2308 ec3c 7c1b b1bb a84a aebd 91b5 513d
00000090: 8de6 2e3e b581 863d 1ea1 2a3c 9fcf 0e3d
000000a0: 39f6 17bd c85b 4fbc 3491 aebd 6a65 44be
000000b0: ba6f c2bd 964a 4e3e f559 4a3d 5668 b2bd
000000c0: 52bb 3a3d e5e4 373d 7830 a9bd 5c5d 03bd
000000d0: f7f9 23bd 35a6 5dbe af73 163e e0a1 da3d
000000e0: 2f10 7fbd 4a22 7b3d 913e eb3d 6588 373d
000000f0: 6d33 963b 9863 f8bd d9c5 c23d f0de e4bd
00000100: 6db3 3abe a174 e5bc 215d 2abd e160 d5bd
00000110: e60e 0ebe d755 fcbd f687 67bd 91ba 0d3d
00000120: 2f96 d1bd 9de7 1cbe 93b9 a93b 243b 02bd
00000130: 435c 04be dfd8 143e a305 2c3d 2a2b fbbd
00000140: 7803 08be d7e4 b83c af48 953d a045 9fbc
00000150: 5bcc 76bd e9b6 91bd 9159 eabd fce1 61be
00000160: 18fd 90bd 926a 233e d6cb 683b 672a fbbd
00000170: dcc9 c5bd 229d 993d 3a8d b8bd a730 3abd
00000180: 9ba7 313c ea43 03be 4b16 b93c e210 19bd
00000190: 88c3 1c3d 488b 85bc 7079 213d 8dec ac3c
000001a0: a724 113e 9fb1 463e cc48 833c aa84 1fbe
000001b0: da7c aabd 0691 23be 4378 b3bd 0eb8 c7bd
000001c0: efa0 a8bd fc4c 47be 9cbc 0abe 1f8d 33bd
000001d0: e601 ddbd 47b4 f3bc bfa5 ca3d 7f69 2a3d
000001e0: f6b9 b7bc 9179 8e3d 4249 b23c 8d1b a33d
000001f0: bef0 c23d a51b 003e 2b82 943d 1bf9 1d3e
00000200: 32d8 ca3c fce8 e8bc e757 1f3d e569 453c
00000210: 644c 61bd eed0 d6bc 011b d63b 58cd d2bd
00000220: 33d1 01be b54e 89bd accc f8bd 5631 72bd
00000230: bc72 a2bd ac95 2ebe ed77 debd 4001 40be
00000240: 09e9 46be 5b61 b7bc f5ea 443e 9376 7fbe
00000250: dc30 f33d 6163 233e bc99 2bbe 85d7 643d
00000260: f83a df3d f2e6 4cbe e529 1b3d 0e19 083e
00000270: e709 2fbe a179 cc3d d3b4 a0bd a482 903c
00000280: a9e9 94bc 576c 87bd 9367 ecbc eee2 29bd
00000290: d481 26bd a227 c0bd 0e4e afbd cd2c 72bc
000002a0: e312 84bc 832b 9dbd f0b1 283d e647 abbe
000002b0: 2582 4e3d 9f95 a93d 2942 30be 8551 b53d
000002c0: 1cf0 cf3d 293d 64bd c538 5c3e a907 363e
000002d0: c1c9 173d 3ee9 323e 9533 e6bc bf48 3b3d
000002e0: b476 3a3d 0f92 8fbe b0a3 3b3e fb76 183e
000002f0: dd55 65be 4e8b 153e 1ffa 703e e323 2c3e
00000300: 538f af3d 8678 743e 42f7 43be 8337 313e
00000310: 572c b43d 7a43 b5be a35a 243e 2ee9 0d3e
00000320: b903 4ebe 5e14 2a3e ebd8 d73c 2523 b4be
00000330: 14aa 753d e221 e93b 1f7d 48be 654e a1bc
00000340: e02c 18be c669 af3c 7c8a 0ebe d7ce 66be
00000350: 6211 d83d 3229 3ebe 251b 8dbd e7d0 b43d
00000360: 6629 64bd 9e04 f7bd 9906 bcbd 2bf1 aebd
00000370: 040c 3ebe 1f5d 073e d243 5cbe 9f29 213d
00000380: 0906 223e f37a 40be 30f7 34be 3a70 b9bd
00000390: 5dba 2abe 13bc 38be 5ec5 40be a7a4 75bd
000003a0: 7d92 9bbd 0516 35be 64d0 acbd db42 e2bd
000003b0: 513b 68bc 4476 66be d707 19be 2591 6fbc
000003c0: 4d40 23be 1cd9 fc3c 59c2 053e a57c ee3d
000003d0: 8c33 203e 9afb 5b3d 2d11 483d 7f0e 633a
000003e0: 594a 33be d344 303e 266f 163b 0a49 85be
000003f0: ee42 7c3d 5afd 2cbe b1ae 11bd 1483 ecbb

conv2.bias f4 [32]
0.0026464115 0.097402275 -0.10736728 0.02788177 0.0020621677 -0.12273246 -0.035597876 -0.0456863
-0.06292969 0.054629803 -0.084623046 -0.11503876 0.03571215 0.028859746 0.02982627 -0.04969904
-0.010443142 -0.0009645916 0.00021217602 0.01262753 -0.041099086 -0.085381016 0.056380473 -0.07798635
-0.07483648 -0.017804906 -0.027051799 -0.053808466 -0.029444862 -0.11066657 -0.09643381 -0.11625998
00000000: 6b6f 2d3b d87a c73d 60e3 dbbd 4f68 e43c
00000010: 6f25 073b 285b fbbd 14cf 11bd 8f21 3bbd
00000020: 48e1 80bd 80c3 5f3d d94e adbd 7199 ebbd
00000030: e746 123d 466b ec3c 3956 f43c 3891 4bbd
00000040: b619 2bbc a6dc 7cba 917b 5e39 b3e3 4e3c
00000050: 8457 28bd 3edc aebd 36ef 663d 4fb7 9fbd
00000060: de43 99bd 98db 91bc bc9b ddbc 4466 5cbd
00000070: 5a36 f1bc 28a5 e2bd 177f c5bd b619 eebd

fc1.weight f4 [128, 1568]
-0.024019966 -0.009653433 0.009369966 0.004807069 -0.023145113 0.0045647966 0.016658034 -0.0099023
-0.011735802 -0.027496515 -0.013276177 -0.009834203 0.030528476 0.01029756 -0.018358063 -0.020046754
0.0007645708 -0.022038147 -0.0027902322 -0.008937242 -0.012817014 0.005161856 -0.042745285 -0.029410994
0.008556421 -0.006661331 -0.001571706 0.003492173 0.004052711 -0.0036781752 -0.0049903006 0.019835161
-0.0021479707 0.013807837 0.011861586 0.015056901 0.0280243 -0.021482918 -0.035417445 -0.042180616
-0.0074730758 0.0086438665 -0.0107916985 0.0017635367 -0.007342666 0.0021044696 -0.0034615772 -0.0073135253
-0.0020971578 -0.011968706 -0.0016018645 -0.0014381225 -0.002113303 -0.028327266 0.002855463 -0.023682421
-0.022575418 -0.01691374 -0.025913276 -0.006668947 -0.046830826 -0.007067134 -0.015917268 -0.009653074
0.007790112 -0.040545948 -0.022088656 -0.013127302 0.009428207 -0.010626175 -0.022623869 -0.005368351
-0.014789214 0.026854228 -0.013138509 -5.6138615e-05 0.019644061 -0.005153572 -0.001128755 -0.009082202
0.0065537184 -0.027128771 -0.029784491 0.010786938 -0.027425524 0.03500409 -0.06322925 -0.008426155
-0.037855953 -0.028985923 -0.029688185 0.0010604319 -0.0019063567 -0.038200755 0.026243819 0.014958611
0.010486261 0.004094882 -0.024395006 0.004041364 -0.040586974 -0.038707282 -0.022640776 -0.029716855
-0.04316401 -9.776102e-05 -0.025642334 -0.015795195 0.020945214 -0.01903435 -0.0116118705 -0.038891423
-0.024755882 -0.0013650822 -0.0043368107 0.0014046254 -0.007996688 -0.0073105753 -0.037967812 0.0058909953
-0.03173015 -0.03389108 0.0020874322 -0.0062252306 -0.00096751563 -0.028710475 -0.01638794 -1.320992e-05
0.0011151454 -0.024728986 -0.0040450995 0.014840937 -0.014016117 0.010045662 -0.03805032 -0.0051483563
-0.014526004 -0.028018992 -0.012445618 -0.01810252 0.017505549 -0.009248648 0.0072755003 -0.037676133
-0.0016101865 -0.0018503083 -0.030726677 -0.007130967 -0.010149247 0.0026380217 -0.014475324 -0.04230797
-0.0040944195 -0.027776653 -0.018278465 -0.00090667396 0.014016856 -0.009478565 -0.0044571487 -0.040379666
-0.03818589 0.0004737152 -0.003802528 -0.008673504 0.0023446614 -0.011126764 -0.020071978 -0.011782749
0.005853431 -0.005168181 -0.018891213 -0.041947648 -0.0135732265 -0.03854973 -0.009541224 -0.0018525178
-0.025683735 -0.02285064 -0.022608653 -0.011602953 -0.027947495 0.00015070755 -0.024707882 -0.00163719
-0.02692399 -0.017233606 -0.034605697 -0.03359092 -0.016949687 0.018526321 -0.0014863205 -0.0152706755
0.017968332 0.0076688137 0.016903134 -0.016433643 -0.013667846 0.009817006 0.0049978355 -0.017713383
-3.5524663e-05 -0.01976987 -0.010932015 -0.007196403 0.024522701 -0.006894261 -0.023309708 -0.029263284
-0.015138596 0.031872287 0.010557322 0.009965062 -0.03304157 -0.027528925 0.0037945737 0.00025661293
0.024258547 -0.00051225146 -0.03681167 -0.0060030394 0.010156812 -0.029317126 -0.0024052379 -0.00793377
0.02032793 0.02867152 -0.038010653 0.022968244 -0.018099638 -0.030527635 0.00515284 -0.009334249
0.008901114 -0.033642676 -0.026698088 0.004829367 -0.013946038 -0.023597078 0.008388875 -0.01604556
-0.01258121 0.0029798204 -0.011769705 0.022747746 -0.022406137 -0.014423345 -0.01564342 0.013314496
-0.010818429 -0.019665519 -0.008829486 -0.023629388 -0.033234876 -0.022456829 0.0063540097 -0.00045648427
00000000: 85c5 c4bc 6f29 1ebc 7c84 193c 9e84 9d3b
00000010: d29a bdbc 4a94 953b 6e76 883c 423d 22bc
00000020: 8547 40bc 5f40 e1bc 5384 59bc a31f 21bc
00000030: db16 fa3c 19b7 283c a663 96bc 1739 a4bc
00000040: 7a6d 483a 5889 b4bc 54dc 36bb 836d 12bc
00000050: 74fe 51bc c924 a93b ae15 2fbd 53ef f0bc
00000060: 3b30 0c3c 4b47 dabb b401 ceba f1dc 643b
00000070: 9bcc 843b 8a0d 71bb ad85 a3bb 597d a23c
00000080: f8c4 0cbb 443a 623c 1957 423c 38b1 763c
00000090: 3793 e53c f2fc afbc e211 11bd 95c5 2cbd
000000a0: b4e0 f4bb 019f 0d3c aacf 30bc 7926 e73a
000000b0: bf9a f0bb 24eb 093b a1db 62bb 4ca6 efbb
000000c0: 7870 09bb 6418 44bc a7f5 d1ba 627f bcba
000000d0: 577f 0abb 950e e8bc b822 3b3b a301 c2bc
000000e0: 15f0 b8bc af8e 8abc 1448 d4bc 2f87 dabb
000000f0: aed1 3fbd 6b93 e7bb ee64 82bc ed27 1ebc
00000100: 3244 ff3b 8213 26bd 45f3 b4bc e513 57bc
00000110: c478 1a3c 6919 2ebc b155 b9bc fee8 afbb
00000120: 764e 72bc 66fd db3c e742 57bc 6176 6bb8
00000130: 95ec a03c 4cdf a8bb bcf2 93ba 84cd 14bc
00000140: 93c0 d63b 283d debc 9bfe f3bc b2bb 303c
00000150: 7eab e0bc 7360 0f3d 567e 81bd db0d 0abc
00000160: d80e 1bbd e373 edbc a334 f3bc 31fe 8a3a
00000170: b7de f9ba 6578 1cbd 47fd d63c f614 753c
00000180: 91ce 2b3c 5c2e 863b 09d8 c7bc 6b6d 843b
00000190: 873e 26bd 878b 1ebd 2679 b9bc c370 f3bc
000001a0: bfcc 30bd 0c05 cdb8 df0f d2bc ed64 81bc
000001b0: 4c95 ab3c eded 9bbc b73f 3ebc 9d4c 1fbd
000001c0: d9cc cabc 8fec b2ba ce1b 8ebb 681b b83a
000001d0: 8a04 03bc 8d8d efbb 2384 1bbd 4009 c13b
000001e0: 79f7 01bd 60d1 0abd 4dcd 083b 05fd cbbb
000001f0: e0a0 7dba 3b32 ebbc 0040 86bc 2da0 5db7
00000200: 122a 923a 7194 cabc c18c 84bb 6727 733c
00000210: dba3 65bc 8f96 243c a7da 1bbd 8bb3 a8bb
00000220: 7afe 6dbc 1688 e5bc b5e8 4bbc bc4b 94bc
00000230: cc67 8f3c a487 17bc 5267 ee3b 4a52 1abd
00000240: e50c d3ba 0b86 f2ba 83b6 fbbc e3aa e9bb
00000250: 0749 26bc a9e2 2c3b e929 6dbc 1f4b 2dbd
00000260: 7b2a 86bb dd8b e3bc b8bc 95bc dcad 6dba
00000270: f5a6 653c fc4b 1bbc 460d 92bb 2665 25bd
00000280: cf68 1cbd fa5c f839 d533 79bb 501b 0ebc
00000290: e4a8 193b 084d 36bc fd6d a4bc 6e0c 41bc
000002a0: 23ce bf3b d859 a9bb bfc1 9abc 4cd1 2bbd
000002b0: 3d62 5ebc 52e6 1dbd cb52 1cbc 2fd0 f2ba
000002c0: b266 d2bc 4431 bbbc c835 b9bc 501a 3ebc
000002d0: 25f2 e4bc 4007 1e39 2f68 cabc fb96 d6ba
000002e0: b38f dcbc 7e2d 8dbc b4be 0dbd a296 09bd
000002f0: 12da 8abc 83c4 973c a4d0 c2ba db31 7abc
00000300: 5332 933c ac4a fb3b 7178 8a3c d99f 86bc
00000310: 1aef 5fbc 82d7 203c e2c4 a33b a81b 91bc
00000320: 5100 15b8 6cf4 a1bc 321c 33bc cecf ebbb
00000330: d5e3 c83c 41e9 e1bb 00f4 bebc 8eb9 efbc
00000340: e007 78bc 848c 023d 9ef8 2c3c 8044 233c
00000350: 9956 07bd 5784 e1bc 62ae 783b 018a 8639
00000360: dcb9 c63c 9d48 06ba d5c7 16bd 25b5 c4bb
00000370: c268 263c 782a f0bc 32a1 1dbb a5fc 01bc
00000380: c286 a63c 89e0 ea3c 0fb1 1bbd e627 bc3c
00000390: b145 94bc 1715 fabc 28d9 a83b aeee 18bc
000003a0: fad5 113c e7cc 09bd f3b5 dabc ab3f 9e3b
000003b0: ec7d 64bc a94e c1bc 7e71 093c fa71 83bc
000003c0: 6b21 4ebc 1749 433b b9d5 40bc 7b59 ba3c
000003d0: 138d b7bc e54f 6cbc a126 80bc 0b25 5a3c
000003e0: c83f 31bc 9519 a1bc 8ca9 10bc 6b92 c1bc
000003f0: 4b21 08bd 62f7 b7bc 4c35 d03b 4854 efb9

fc1.bias f4 [128]
-0.031984124 0.02047393 -0.014323295 0.01015259 0.01772551 -0.023617756 -0.010754946 0.040080793
-0.037643176 -0.042529516 -0.047546536 -0.0017253145 0.054842517 0.026005939 0.014128854 -0.0060286913
0.03424527 -0.01736058 -0.0123535395 -0.010077495 -0.014454492 -0.015175814 -0.04972132 -0.042247858
0.008401311 -0.031896356 -0.026449764 0.00014652376 -0.020977689 0.014388237 -0.029678138 0.012043535
0.01611355 -0.0031759392 -0.0140822 0.017692091 -0.026656397 -0.02247482 0.0137249045 0.011590088
-0.022035278 0.0072342427 -0.016129836 0.017180076 -0.030836754 -0.018990196 -0.020528808 -0.0020976753
-0.024947442 0.00821062 -0.016596591 0.010837444 -0.043547705 0.004111321 0.039136294 -0.025641086
-0.029586991 0.013677039 -0.021130322 -0.048278116 -0.016227003 0.024701227 0.018782387 -0.0061391955
0.043911856 -0.020187406 0.04121491 -0.045030363 -0.002669713 0.013287739 0.0063457345 -0.0045769573
0.025411807 0.018969959 -0.01429706 0.0007581436 0.011465952 -0.008334748 -0.0282852 0.023093704
-0.022018813 0.022617621 -0.030439455 0.05061409 -0.042422943 -0.023435581 0.034441456 -0.019960487
0.025374645 -0.03750111 0.008227385 0.0046514384 0.013316645 -0.031208623 -0.011048509 -0.029464157
0.024134645 -0.029916232 -0.0071900045 0.017807765 -0.05608025 -0.025397457 0.02946721 0.011007234
-0.015415624 -0.028914822 -0.025899775 -0.03735107 0.0018036718 -0.021909006 -0.031349663 0.0103357965
0.040105335 -0.022457229 0.0072254897 0.049020916 0.005869436 -0.018965995 0.0022206223 0.00014461632
0.010478637 0.07065526 0.020769872 -0.015942652 0.0071429396 0.044310458 0.024168173 -0.069658235
00000000: c901 03bd f1b8 a73c 41ac 6abc 0d57 263c
00000010: 1735 913c 067a c1bc 8335 30bc c22b 243d
00000020: bb2f 1abd 6e33 2ebd 28c0 42bd f323 e2ba
00000030: 8ca2 603d 680a d53c b57c 673c 548c c5bb
00000040: c544 0c3d c637 8ebc 8066 4abc 141c 25bc
00000050: 89d2 6cbc faa3 78bc 95a8 4bbd 170c 2dbd
00000060: a7a5 093c c1a5 02bd 2dad d8bc 2ca4 1939
00000070: 67d9 abbc a4bc 6b3c 911f f3bc 3f52 453c
00000080: 9000 843c 6b23 50bb 07b9 66bc 01ef 903c
00000090: 845e dabc 1d1d b8bc 6cde 603c 5ae4 3d3c
000000a0: 5483 b4bc 3a0d ed3b b822 84bc 3bbd 8c3c
000000b0: 5c9d fcbc 5491 9bbc 082c a8bc 2779 09bb
000000c0: 945e ccbc d685 063c 93f5 87bc 898f 313c
000000d0: 145f 32bd 43b8 863b 614d 203d 410d d2bc
000000e0: 6b60 f2bc a915 603c 7f19 adbc 46bf 45bd
000000f0: 7eee 84bc 3a5a ca3c 85dd 993c 4e2b c9bb
00000100: ebdc 333d 0f60 a5bc f7d0 283d c271 38bd
00000110: 5af6 2ebb d1b4 593c e1ef cf3b 4dfa 95bb
00000120: 6c2c d03c e366 9b3c 373e 6abc 28be 463a
00000130: b0db 3b3c 788e 08bc 5db6 e7bc 022f bd3c
00000140: cc60 b4bc 9748 b93c 2a5c f9bc b850 4f3d
00000150: aec3 2dbd fafb bfbc 7c12 0d3d 2d84 a3bc
00000160: 7dde cf3c c49a 19bd 27cc 063c 186b 983b
00000170: 0f2e 5a3c 3aa9 ffbc ce04 35bc d15e f1bc
00000180: 05b6 c53c e312 f5bc 219a ebbb 97e1 913c
00000190: 67b4 65bd 540e d0bc 3865 f13c b057 343c
000001a0: d091 7cbc c7de ecbc c42b d4bc 70fd 18bd
000001b0: 2f69 ec3a 847a b3bc 8168 00bd 7957 293c
000001c0: 7e45 243d 39f8 b7bc cdc3 ec3b 28ca 483d
000001d0: 6654 c03b 935e 9bbc dc87 113b 26a4 1739
000001e0: 97ae 2b3c b4b3 903d 9425 aa3c 2a9a 82bc
000001f0: 520f ea3b e27e 353d 55fc c53c faa8 8ebd

fc2.weight f4 [10, 128]
0.039597627 -0.021729728 0.019335188 0.0862028 -0.17100713 0.025792321 -0.022400958 -0.043969106
0.024431005 -0.11810647 0.09233563 -0.114413224 -0.02291397 0.117387675 0.009010577 0.070040055
-0.10773268 0.062245414 0.05024254 -0.033848066 0.016435456 -0.062694885 -0.033130076 -0.037506867
0.07704849 -0.005249217 -0.004954543 0.088094875 0.007181243 -0.09596794 0.015533667 0.068499714
-0.08462959 -0.004053361 -0.15082042 -0.08891302 -0.0689631 0.03786721 -0.07457354 -0.13828836
-0.034338746 0.07508475 -0.13097136 0.02364694 0.037000556 -9.389237e-05 0.046918802 0.10266168
0.05215176 0.033788584 0.06864906 -0.024593638 -0.09908826 -0.068405844 0.12726967 0.0642104
0.07361758 0.031286716 -0.0020526706 0.035907056 -0.13887338 -0.04457876 0.07509187 -0.034720156
-0.064639635 -0.06896803 0.07643363 -0.09211466 0.06470349 0.04440782 0.060476422 -0.029553784
-0.05003685 0.09985797 0.040051423 0.08678679 -0.055089336 -0.13895762 0.07056687 -0.11060593
0.11219902 0.09006546 0.10570995 0.1123748 0.03741371 0.070944905 0.08497625 0.06325925
-0.0819201 0.01663265 -0.14771013 -0.056643106 0.09511058 0.06397789 -0.06806209 0.047810804
-0.16837314 0.089294635 0.090303525 0.01762115 0.15235108 -0.23064132 0.0029511591 -0.043805346
-0.06313833 0.054214906 -0.065483436 -0.090455845 -0.012265456 0.010565213 0.027242003 -0.06424266
0.089005575 0.0641998 -0.08013547 -0.0007732267 0.09345093 0.14325035 -0.042219896 0.07623139
0.00903606 0.02448385 -0.0042478684 0.014129437 -0.015853783 -0.31436253 0.15177077 -0.01793784
0.13297395 -0.10591627 0.0119616175 0.11533072 -0.18895228 -0.11825136 -0.029721962 0.08448892
-0.058684055 0.04788641 -0.023261378 0.0596955 0.11418536 0.014298409 -0.0153635945 -0.021179399
0.079991676 -0.062468275 -0.051697996 -0.025435664 0.06415997 -0.0946063 -0.14559309 -0.122787416
-0.15428089 0.04615308 -0.008331572 -0.14118369 0.06542026 0.09213831 0.009349515 0.03446311
-0.032496564 0.04793003 0.09250507 0.074624196 0.029348016 -0.052003488 0.0067964075 0.1381072
-0.006923416 -0.056673724 -0.11369885 -0.20008476 0.064229436 -0.013751607 -0.0026267674 -0.0914859
-0.06813938 0.077547885 0.09286842 -0.011692655 -0.13140419 0.040189676 0.10634421 -0.008625422
-0.08948816 0.0912743 -0.05243055 0.025254594 0.051118735 0.050215226 -0.032327686 0.023798576
0.10132673 0.078671806 0.11145925 -0.0058160983 -0.058025714 -0.07523388 -0.07040539 -0.032699738
0.08473345 -0.06861617 -0.05365568 -0.08795456 -0.04088012 -0.064504646 0.021287868 -0.12307581
-0.14169756 0.017221441 -0.18344645 -0.12609413 0.04608141 -0.13385603 0.05675634 -0.059119835
0.114997126 0.016060539 0.03408412 -0.02663073 -0.13067186 -0.0024347943 0.035099503 -0.05361195
0.15006399 -0.12920886 -0.16731165 -0.004049192 0.028260432 -0.055973727 0.08738302 0.12262238
0.0722743 -0.14502282 -0.03394577 -0.19666444 0.055223923 0.036005355 0.1081448 -0.05098945
0.14321199 0.05516307 -0.030673938 0.12397316 0.068993405 -0.16476092 3.2747346e-05 0.10383013
-0.03130445 0.2201499 -0.22430144 0.013788912 0.023943791 0.07685883 0.11295991 -0.08465129
00000000: 1f31 223d 8b02 b2bc d464 9e3c 188b b03d
00000010: 7e1c 2fbe 6b4a d33c 3782 b7bc f318 34bd
00000020: 8823 c83c cee1 f1bd 761a bd3d 7b51 eabd
00000030: 14b6 bbbc f368 f03d 19a1 133c 2971 8f3d
00000040: f4a2 dcbd 0cf5 7e3d 1fcb 4d3d 45a4 0abd
00000050: a6a3 863c 2d66 80bd 67b3 07bd cda0 19bd
00000060: 99cb 9d3d a001 acbb b859 a2bb 166b b43d
00000070: a250 eb3b d78a c4bd ec80 7e3c 9449 8c3d
00000080: 4752 adbd 0ed2 84bb ab70 1abe 0818 b6bd
00000090: 873c 8dbd a61a 1b3d 03ba 98bd 779b 0dbe
000000a0: c9a6 0cbd 09c6 993d 5b1d 06be 3ab7 c13c
000000b0: e58d 173d 15e8 c4b8 ee2d 403d 4940 d23d
000000c0: 159d 553d e665 0a3d e197 8c3d 9978 c9bc
000000d0: c9ee cabd 5d18 8cbd fb52 023e be80 833d
000000e0: d0c4 963d 8026 003d 1986 06bb 4713 133d
000000f0: d334 0ebe 3898 36bd c4c9 993d b936 0ebd
00000100: c961 84bd 1c3f 8dbd 3c89 9c3d 9ca6 bcbd
00000110: 4383 843d f9e4 353d 20b6 773d c71a f2bc
00000120: 71f3 4cbd 5682 cc3d f60c 243d 46bd b13d
00000130: 5ba5 61bd e84a 0ebe 5d85 903d 5d85 e2bd
00000140: 9ac8 e53d 3d74 b83d 757e d83d c224 e63d
00000150: 1e3f 193d 904b 913d 0708 ae3d 118e 813d
00000160: bac5 a7bd 3241 883c 5341 17be 9a02 68bd
00000170: 56c9 c23d d706 833d 2364 8bbd 43d5 433d
00000180: 026a 2cbe 1be0 b63d 0ef1 b83d 3b5a 903c
00000190: ec01 1c3e 3d2d 6cbe 3c68 413b 3c6d 33bd
000001a0: ab4e 81bd 7310 5e3d 2e1c 86bd ea40 b9bd
000001b0: 0df5 48bc b719 2d3c 9f2a df3c a891 83bd
000001c0: 8e48 b63d 2f7b 833d 111e a4bd 5eb2 4aba
000001d0: 3463 bf3d 38b0 123e c5ee 2cbd 341f 9c3d
000001e0: fc0b 143c 5b92 c83c b431 8bbb 277f 673c
000001f0: cbdf 81bc 20f4 a0be cc69 1b3e 61f2 92bc
00000200: 532a 083e a1ea d8bd a9fa 433c 8332 ec3d
00000210: b57c 41be c52d f2bd 797b f3bc 8708 ad3d
00000220: b15e 70bd 8a24 443d a58e bebc 4583 743d
00000230: 04da e93d e043 6a3c 96b7 7bbc 6b80 adbc
00000240: add2 a33d bcde 7fbd 47c1 53bd 745e d0bc
00000250: 4d66 833d f3c0 c1bd 5b16 15be f877 fbbd
00000260: cffb 1dbe 030b 3d3d 2581 08bc 7592 10be
00000270: 0ffb 853d 03b3 bc3d b52e 193c 3129 0d3d
00000280: 1e1b 05bd 4752 443d 4c73 bd3d 92d4 983d
00000290: 406b f03c 9c01 55bd 66b4 de3b f96b 0d3e
000002a0: d3dd e2bb b522 68bd f1da e8bd 05e3 4cbe
000002b0: b98a 833d 6c4e 61bc d825 2cbb f65c bbbd
000002c0: a98c 8bbd 6dd1 9e3d cc31 be3d 8d92 3fbc
000002d0: d28e 06be ee9d 243d feca d93d a451 0dbc
000002e0: 9245 b7bd 05ee ba3d 6bc1 56bd b9e2 ce3c
000002f0: e161 513d 7bae 4d3d 096a 04bd 3bf5 c23c
00000300: 6384 cf3d af1e a13d bf44 e43d f894 bebb
00000310: 5fac 6dbd 3814 9abd b330 90bd 29f0 05bd
00000320: bb88 ad3d a286 8cbd 0fc6 5bbd 8521 b4bd
00000330: ea71 27bd 031b 84bd e563 ae3c 2c0f fcbd
00000340: 2a19 11be fb13 8d3c 63d9 3bbe d21e 01be
00000350: dcbf 3c3d 8e11 09be 5679 683d a427 72bd
00000360: 9d83 eb3d 6491 833c ca9b 0b3d b028 dabc
00000370: d8ce 05be 1291 1fbb 7fc4 0f3d 3498 5bbd
00000380: 60aa 193e 544f 04be bf53 2bbe 16af 84bb
00000390: 6c82 e73c b544 65bd def5 b23d 7121 fb3d
000003a0: 8c04 943d dd80 14be b80a 0bbd 6762 49be
000003b0: 7b32 623d 5a7a 133d 057b dd3d 50da 50bd
000003c0: 2aa6 123e acf2 613d e947 fbbc a4e5 fd3d
000003d0: 6a4c 8d3d 16b7 28be 325a 0938 e4a4 d43d
000003e0: 1839 00bd fa6e 613e 47af 65be e4ea 613c
000003f0: c525 c43c 2a68 9d3d 8657 e73d a85d adbd

fc2.bias f4 [10]
-0.045830574 0.12031492 -0.02844506 0.0116533805 0.041907106 0.009644936 0.015140836 -0.03925046
-0.04913698 -0.025012787
00000000: d7b8 3bbd ab67 f63d 9d05 e9bc d2ed 3e3c
00000010: c9a6 2b3d cb05 1e3c 4511 783c 17c5 20bd
00000020: dc43 49bd 9ee7 ccbc
